tests/testdata/random_model.onnx (onnx, 408 bytes, 1 tensors)

conv.weight f4 [1, 3, 3, 3]
0	0x3e07e3da	0.13270512
1	0x3da6bd15	0.08141533
2	0xbd2a8ce3	-0.041638266
3	0x3dac2685	0.084057845
4	0xbc520d0f	-0.012820496
5	0xbdb94e1b	-0.090481006
6	0x3d807051	0.06271423
7	0xbe2eb752	-0.17062119
8	0xbd722670	-0.059118688
9	0x3e32e844	0.17471415
10	0x3dc534cc	0.09629211
11	0xbd233264	-0.039842978
12	0xbd5312dd	-0.05153166
13	0x3e3f87e9	0.1870419
14	0x3ce4988f	0.027904777
15	0xbd72327d	-0.05913018
16	0x3c2e29f9	0.010630124
17	0x3b7e567c	0.0038808873
18	0xbe1ac27f	-0.15113257
19	0xbd40fdb1	-0.04711694
20	0xbe384548	-0.17995179
21	0x3e1cd340	0.1531496
22	0xbdf44cc5	-0.11928705
23	0x3e2fb62f	0.17159341
24	0xbd7ef1cb	-0.06224231
25	0xbccb85c6	-0.024844062
26	0xbe0b2e73	-0.13591938
